…
ry: /mgData4/yangb/data/Arabic/wavedata/lang_char/train_bpe10000_units.txt
run.sh: init method is file:///mgData2/yangb/wenet/examples/arabic/exp/arabic_conformer_bidecoder_large_online_10000/ddp_init
[2023-10-23 09:34:11,714] [INFO] [real_accelerator.py:158:get_accelerator] Setting ds_accelerator to cuda (auto detect)
Failed to import k2 and icefall.         Notice that they are necessary for         hlg_onebest/hlg_rescore decoding and LF-MMI training
ASRModel(
  (encoder): ConformerEncoder(
    (global_cmvn): GlobalCMVN()
    (embed): Conv2dSubsampling4(
      (conv): Sequential(
        (0): Conv2d(1, 512, kernel_size=(3, 3), stride=(2, 2))
        (1): ReLU()
        (2): Conv2d(512, 512, kernel_size=(3, 3), stride=(2, 2))
        (3): ReLU()
      )
      (out): Sequential(
        (0): Linear(in_features=9728, out_features=512, bias=True)
      )
      (pos_enc): RelPositionalEncoding(
        (dropout): Dropout(p=0.1, inplace=False)
      )
    )
    (after_norm): LayerNorm((512,), eps=1e-05, elementwise_affine=True)
    (encoders): ModuleList(
      (0): ConformerEncoderLayer(
        (self_attn): RelPositionMultiHeadedAttention(
          (linear_q): Linear(in_features=512, out_features=512, bias=True)
          (linear_k): Linear(in_features=512, out_features=512, bias=True)
          (linear_v): Linear(in_features=512, out_features=512, bias=True)
          (linear_out): Linear(in_features=512, out_features=512, bias=True)
          (dropout): Dropout(p=0.1, inplace=False)
          (linear_pos): Linear(in_features=512, out_features=512, bias=False)
        )
        (feed_forward): PositionwiseFeedForward(
          (w_1): Linear(in_features=512, out_features=2048, bias=True)
          (activation): SiLU()
          (dropout): Dropout(p=0.1, inplace=False)
          (w_2): Linear(in_features=2048, out_features=512, bias=True)
        )
        (feed_forward_macaron): PositionwiseFeedForward(
          (w_1): Linear(in_features=512, out_features=2048, bias=True)
          (activation): SiLU()
          (dropout): Dropout(p=0.1, inplace=False)
          (w_2): Linear(in_features=2048, out_features=512, bias=True)
        )
        (conv_module): ConvolutionModule(
          (pointwise_conv1): Conv1d(512, 1024, kernel_size=(1,), stride=(1,))
          (depthwise_conv): Conv1d(512, 512, kernel_size=(31,), stride=(1,), groups=512)
          (norm): LayerNorm((512,), eps=1e-05, elementwise_affine=True)
          (pointwise_conv2): Conv1d(512, 512, kernel_size=(1,), stride=(1,))
          (activation): SiLU()
        )
        (norm_ff): LayerNorm((512,), eps=1e-05, elementwise_affine=True)
        (norm_mha): LayerNorm((512,), eps=1e-05, elementwise_affine=True)
        (norm_ff_macaron): LayerNorm((512,), eps=1e-05, elementwise_affine=True)
        (norm_conv): LayerNorm((512,), eps=1e-05, elementwise_affine=True)
        (norm_final): LayerNorm((512,), eps=1e-05, elementwise_affine=True)
        (dropout): Dropout(p=0.1, inplace=False)
      )
      (1): ConformerEncoderLayer(
        (self_attn): RelPositionMultiHeadedAttention(
          (linear_q): Linear(in_features=512, out_features=512, bias=True)
          (linear_k): Linear(in_features=512, out_features=512, bias=True)
          (linear_v): Linear(in_features=512, out_features=512, bias=True)
          (linear_out): Linear(in_features=512, out_features=512, bias=True)
          (dropout): Dropout(p=0.1, inplace=False)
          (linear_pos): Linear(in_features=512, out_features=512, bias=False)
        )
        (feed_forward): PositionwiseFeedForward(
          (w_1): Linear(in_features=512, out_features=2048, bias=True)
          (activation): SiLU()
          (dropout): Dropout(p=0.1, inplace=False)
          (w_2): Linear(in_features=2048, out_features=512, bias=True)
        )
        (feed_forward_macaron): PositionwiseFeedForward(
          (w_1): Linear(in_features=512, out_features=2048, bias=True)
          (activation): SiLU()
          (dropout): Dropout(p=0.1, inplace=False)
          (w_2): Linear(in_features=2048, out_features=512, bias=True)
        )
        (conv_module): ConvolutionModule(
          (pointwise_conv1): Conv1d(512, 1024, kernel_size=(1,), stride=(1,))
          (depthwise_conv): Conv1d(512, 512, kernel_size=(31,), stride=(1,), groups=512)
          (norm): LayerNorm((512,), eps=1e-05, elementwise_affine=True)
          (pointwise_conv2): Conv1d(512, 512, kernel_size=(1,), stride=(1,))
          (activation): SiLU()
        )
        (norm_ff): LayerNorm((512,), eps=1e-05, elementwise_affine=True)
        (norm_mha): LayerNorm((512,), eps=1e-05, elementwise_affine=True)
        (norm_ff_macaron): LayerNorm((512,), eps=1e-05, elementwise_affine=True)
        (norm_conv): LayerNorm((512,), eps=1e-05, elementwise_affine=True)
        (norm_final): LayerNorm((512,), eps=1e-05, elementwise_affine=True)
        (dropout): Dropout(p=0.1, inplace=False)
      )
      (2): ConformerEncoderLayer(
        (self_attn): RelPositionMultiHeadedAttention(
          (linear_q): Linear(in_features=512, out_features=512, bias=True)
          (linear_k): Linear(in_features=512, out_features=512, bias=True)
          (linear_v): Linear(in_features=512, out_features=512, bias=True)
          (linear_out): Linear(in_features=512, out_features=512, bias=True)
          (dropout): Dropout(p=0.1, inplace=False)
          (linear_pos): Linear(in_features=512, out_features=512, bias=False)
        )
        (feed_forward): PositionwiseFeedForward(
          (w_1): Linear(in_features=512, out_features=2048, bias=True)
          (activation): SiLU()
          (dropout): Dropout(p=0.1, inplace=False)
          (w_2): Linear(in_features=2048, out_features=512, bias=True)
        )
        (feed_forward_macaron): PositionwiseFeedForward(
          (w_1): Linear(in_features=512, out_features=2048, bias=True)
          (activation): SiLU()
          (dropout): Dropout(p=0.1, inplace=False)
          (w_2): Linear(in_features=2048, out_features=512, bias=True)
        )
        (conv_module): ConvolutionModule(
          (pointwise_conv1): Conv1d(512, 1024, kernel_size=(1,), stride=(1,))
          (depthwise_conv): Conv1d(512, 512, kernel_size=(31,), stride=(1,), groups=512)
          (norm): LayerNorm((512,), eps=1e-05, elementwise_affine=True)
          (pointwise_conv2): Conv1d(512, 512, kernel_size=(1,), stride=(1,))
          (activation): SiLU()
        )
        (norm_ff): LayerNorm((512,), eps=1e-05, elementwise_affine=True)
        (norm_mha): LayerNorm((512,), eps=1e-05, elementwise_affine=True)
        (norm_ff_macaron): LayerNorm((512,), eps=1e-05, elementwise_affine=True)
        (norm_conv): LayerNorm((512,), eps=1e-05, elementwise_affine=True)
        (norm_final): LayerNorm((512,), eps=1e-05, elementwise_affine=True)
        (dropout): Dropout(p=0.1, inplace=False)
      )
      (3): ConformerEncoderLayer(
        (self_attn): RelPositionMultiHeadedAttention(
          (linear_q): Linear(in_features=512, out_features=512, bias=True)
          (linear_k): Linear(in_features=512, out_features=512, bias=True)
          (linear_v): Linear(in_features=512, out_features=512, bias=True)
          (linear_out): Linear(in_features=512, out_features=512, bias=True)
          (dropout): Dropout(p=0.1, inplace=False)
          (linear_pos): Linear(in_features=512, out_features=512, bias=False)
        )
        (feed_forward): PositionwiseFeedForward(
          (w_1): Linear(in_features=512, out_features=2048, bias=True)
          (activation): SiLU()
          (dropout): Dropout(p=0.1, inplace=False)
          (w_2): Linear(in_features=2048, out_features=512, bias=True)
        )
        (feed_forward_macaron): PositionwiseFeedForward(
          (w_1): Linear(in_features=512, out_features=2048, bias=True)
          (activation): SiLU()
          (dropout): Dropout(p=0.1, inplace=False)
          (w_2): Linear(in_features=2048, out_features=512, bias=True)
        )
        (conv_module): ConvolutionModule(
          (pointwise_conv1): Conv1d(512, 1024, kernel_size=(1,), stride=(1,))
          (depthwise_conv): Conv1d(512, 512, kernel_size=(31,), stride=(1,), groups=512)
          (norm): LayerNorm((512,), eps=1e-05, elementwise_affine=True)
          (pointwise_conv2): Conv1d(512, 512, kernel_size=(1,), stride=(1,))
          (activation): SiLU()
        )
        (norm_ff): LayerNorm((512,), eps=1e-05, elementwise_affine=True)
        (norm_mha): LayerNorm((512,), eps=1e-05, elementwise_affine=True)
        (norm_ff_macaron): LayerNorm((512,), eps=1e-05, elementwise_affine=True)
        (norm_conv): LayerNorm((512,), eps=1e-05, elementwise_affine=True)
        (norm_final): LayerNorm((512,), eps=1e-05, elementwise_affine=True)
        (dropout): Dropout(p=0.1, inplace=False)
      )
      (4): ConformerEncoderLayer(
        (self_attn): RelPositionMultiHeadedAttention(
          (linear_q): Linear(in_features=512, out_features=512, bias=True)
          (linear_k): Linear(in_features=512, out_features=512, bias=True)
          (linear_v): Linear(in_features=512, out_features=512, bias=True)
          (linear_out): Linear(in_features=512, out_features=512, bias=True)
          (dropout): Dropout(p=0.1, inplace=False)
          (linear_pos): Linear(in_features=512, out_features=512, bias=False)
        )
        (feed_forward): PositionwiseFeedForward(
          (w_1): Linear(in_features=512, out_features=2048, bias=True)
          (activation): SiLU()
          (dropout): Dropout(p=0.1, inplace=False)
          (w_2): Linear(in_features=2048, out_features=512, bias=True)
        )
        (feed_forward_macaron): PositionwiseFeedForward(
          (w_1): Linear(in_features=512, out_features=2048, bias=True)
          (activation): SiLU()
          (dropout): Dropout(p=0.1, inplace=False)
          (w_2): Linear(in_features=2048, out_features=512, bias=True)
        )
        (conv_module): ConvolutionModule(
          (pointwise_conv1): Conv1d(512, 1024, kernel_size=(1,), stride=(1,))
          (depthwise_conv): Conv1d(512, 512, kernel_size=(31,), stride=(1,), groups=512)
          (norm): LayerNorm((512,), eps=1e-05, elementwise_affine=True)
          (pointwise_conv2): Conv1d(512, 512, kernel_size=(1,), stride=(1,))
          (activation): SiLU()
        )
        (norm_ff): LayerNorm((512,), eps=1e-05, elementwise_affine=True)
        (norm_mha): LayerNorm((512,), eps=1e-05, elementwise_affine=True)
        (norm_ff_macaron): LayerNorm((512,), eps=1e-05, elementwise_affine=True)
        (norm_conv): LayerNorm((512,), eps=1e-05, elementwise_affine=True)
        (norm_final): LayerNorm((512,), eps=1e-05, elementwise_affine=True)
        (dropout): Dropout(p=0.1, inplace=False)
      )
      (5): ConformerEncoderLayer(
        (self_attn): RelPositionMultiHeadedAttention(
          (linear_q): Linear(in_features=512, out_features=512, bias=True)
          (linear_k): Linear(in_features=512, out_features=512, bias=True)
          (linear_v): Linear(in_features=512, out_features=512, bias=True)
          (linear_out): Linear(in_features=512, out_features=512, bias=True)
          (dropout): Dropout(p=0.1, inplace=False)
          (linear_pos): Linear(in_features=512, out_features=512, bias=False)
        )
        (feed_forward): PositionwiseFeedForward(
          (w_1): Linear(in_features=512, out_features=2048, bias=True)
          (activation): SiLU()
          (dropout): Dropout(p=0.1, inplace=False)
          (w_2): Linear(in_features=2048, out_features=512, bias=True)
        )
        (feed_forward_macaron): PositionwiseFeedForward(
          (w_1): Linear(in_features=512, out_features=2048, bias=True)
          (activation): SiLU()
          (dropout): Dropout(p=0.1, inplace=False)
          (w_2): Linear(in_features=2048, out_features=512, bias=True)
        )
        (conv_module): ConvolutionModule(
          (pointwise_conv1): Conv1d(512, 1024, kernel_size=(1,), stride=(1,))
          (depthwise_conv): Conv1d(512, 512, kernel_size=(31,), stride=(1,), groups=512)
          (norm): LayerNorm((512,), eps=1e-05, elementwise_affine=True)
          (pointwise_conv2): Conv1d(512, 512, kernel_size=(1,), stride=(1,))
          (activation): SiLU()
        )
        (norm_ff): LayerNorm((512,), eps=1e-05, elementwise_affine=True)
        (norm_mha): LayerNorm((512,), eps=1e-05, elementwise_affine=True)
        (norm_ff_macaron): LayerNorm((512,), eps=1e-05, elementwise_affine=True)
        (norm_conv): LayerNorm((512,), eps=1e-05, elementwise_affine=True)
        (norm_final): LayerNorm((512,), eps=1e-05, elementwise_affine=True)
        (dropout): Dropout(p=0.1, inplace=False)
      )
      (6): ConformerEncoderLayer(
        (self_attn): RelPositionMultiHeadedAttention(
          (linear_q): Linear(in_features=512, out_features=512, bias=True)
          (linear_k): Linear(in_features=512, out_features=512, bias=True)
          (linear_v): Linear(in_features=512, out_features=512, bias=True)
          (linear_out): Linear(in_features=512, out_features=512, bias=True)
          (dropout): Dropout(p=0.1, inplace=False)
          (linear_pos): Linear(in_features=512, out_features=512, bias=False)
        )
        (feed_forward): PositionwiseFeedForward(
          (w_1): Linear(in_features=512, out_features=2048, bias=True)
          (activation): SiLU()
          (dropout): Dropout(p=0.1, inplace=False)
          (w_2): Linear(in_features=2048, out_features=512, bias=True)
        )
        (feed_forward_macaron): PositionwiseFeedForward(
          (w_1): Linear(in_features=512, out_features=2048, bias=True)
          (activation): SiLU()
          (dropout): Dropout(p=0.1, inplace=False)
          (w_2): Linear(in_features=2048, out_features=512, bias=True)
        )
        (conv_module): ConvolutionModule(
          (pointwise_conv1): Conv1d(512, 1024, kernel_size=(1,), stride=(1,))
          (depthwise_conv): Conv1d(512, 512, kernel_size=(31,), stride=(1,), groups=512)
          (norm): LayerNorm((512,), eps=1e-05, elementwise_affine=True)
          (pointwise_conv2): Conv1d(512, 512, kernel_size=(1,), stride=(1,))
          (activation): SiLU()
        )
        (norm_ff): LayerNorm((512,), eps=1e-05, elementwise_affine=True)
        (norm_mha): LayerNorm((512,), eps=1e-05, elementwise_affine=True)
        (norm_ff_macaron): LayerNorm((512,), eps=1e-05, elementwise_affine=True)
        (norm_conv): LayerNorm((512,), eps=1e-05, elementwise_affine=True)
        (norm_final): LayerNorm((512,), eps=1e-05, elementwise_affine=True)
        (dropout): Dropout(p=0.1, inplace=False)
      )
      (7): ConformerEncoderLayer(
        (self_attn): RelPositionMultiHeadedAttention(
          (linear_q): Linear(in_features=512, out_features=512, bias=True)
          (linear_k): Linear(in_features=512, out_features=512, bias=True)
          (linear_v): Linear(in_features=512, out_features=512, bias=True)
          (linear_out): Linear(in_features=512, out_features=512, bias=True)
          (dropout): Dropout(p=0.1, inplace=False)
          (linear_pos): Linear(in_features=512, out_features=512, bias=False)
        )
        (feed_forward): PositionwiseFeedForward(
          (w_1): Linear(in_features=512, out_features=2048, bias=True)
          (activation): SiLU()
          (dropout): Dropout(p=0.1, inplace=False)
          (w_2): Linear(in_features=2048, out_features=512, bias=True)
        )
        (feed_forward_macaron): PositionwiseFeedForward(
          (w_1): Linear(in_features=512, out_features=2048, bias=True)
          (activation): SiLU()
          (dropout): Dropout(p=0.1, inplace=False)
          (w_2): Linear(in_features=2048, out_features=512, bias=True)
        )
        (conv_module): ConvolutionModule(
          (pointwise_conv1): Conv1d(512, 1024, kernel_size=(1,), stride=(1,))
          (depthwise_conv): Conv1d(512, 512, kernel_size=(31,), stride=(1,), groups=512)
          (norm): LayerNorm((512,), eps=1e-05, elementwise_affine=True)
          (pointwise_conv2): Conv1d(512, 512, kernel_size=(1,), stride=(1,))
          (activation): SiLU()
        )
        (norm_ff): LayerNorm((512,), eps=1e-05, elementwise_affine=True)
        (norm_mha): LayerNorm((512,), eps=1e-05, elementwise_affine=True)
        (norm_ff_macaron): LayerNorm((512,), eps=1e-05, elementwise_affine=True)
        (norm_conv): LayerNorm((512,), eps=1e-05, elementwise_affine=True)
        (norm_final): LayerNorm((512,), eps=1e-05, elementwise_affine=True)
        (dropout): Dropout(p=0.1, inplace=False)
      )
      (8): ConformerEncoderLayer(
        (self_attn): RelPositionMultiHeadedAttention(
          (linear_q): Linear(in_features=512, out_features=512, bias=True)
          (linear_k): Linear(in_features=512, out_features=512, bias=True)
          (linear_v): Linear(in_features=512, out_features=512, bias=True)
          (linear_out): Linear(in_features=512, out_features=512, bias=True)
          (dropout): Dropout(p=0.1, inplace=False)
          (linear_pos): Linear(in_features=512, out_features=512, bias=False)
        )
        (feed_forward): PositionwiseFeedForward(
          (w_1): Linear(in_features=512, out_features=2048, bias=True)
          (activation): SiLU()
          (dropout): Dropout(p=0.1, inplace=False)
          (w_2): Linear(in_features=2048, out_features=512, bias=True)
        )
        (feed_forward_macaron): PositionwiseFeedForward(
          (w_1): Linear(in_features=512, out_features=2048, bias=True)
          (activation): SiLU()
          (dropout): Dropout(p=0.1, inplace=False)
          (w_2): Linear(in_features=2048, out_features=512, bias=True)
        )
        (conv_module): ConvolutionModule(
          (pointwise_conv1): Conv1d(512, 1024, kernel_size=(1,), stride=(1,))
          (depthwise_conv): Conv1d(512, 512, kernel_size=(31,), stride=(1,), groups=512)
          (norm): LayerNorm((512,), eps=1e-05, elementwise_affine=True)
          (pointwise_conv2): Conv1d(512, 512, kernel_size=(1,), stride=(1,))
          (activation): SiLU()
        )
        (norm_ff): LayerNorm((512,), eps=1e-05, elementwise_affine=True)
        (norm_mha): LayerNorm((512,), eps=1e-05, elementwise_affine=True)
        (norm_ff_macaron): LayerNorm((512,), eps=1e-05, elementwise_affine=True)
        (norm_conv): LayerNorm((512,), eps=1e-05, elementwise_affine=True)
        (norm_final): LayerNorm((512,), eps=1e-05, elementwise_affine=True)
        (dropout): Dropout(p=0.1, inplace=False)
      )
      (9): ConformerEncoderLayer(
        (self_attn): RelPositionMultiHeadedAttention(
          (linear_q): Linear(in_features=512, out_features=512, bias=True)
          (linear_k): Linear(in_features=512, out_features=512, bias=True)
          (linear_v): Linear(in_features=512, out_features=512, bias=True)
          (linear_out): Linear(in_features=512, out_features=512, bias=True)
          (dropout): Dropout(p=0.1, inplace=False)
          (linear_pos): Linear(in_features=512, out_features=512, bias=False)
        )
        (feed_forward): PositionwiseFeedForward(
          (w_1): Linear(in_features=512, out_features=2048, bias=True)
          (activation): SiLU()
          (dropout): Dropout(p=0.1, inplace=False)
          (w_2): Linear(in_features=2048, out_features=512, bias=True)
        )
        (feed_forward_macaron): PositionwiseFeedForward(
          (w_1): Linear(in_features=512, out_features=2048, bias=True)
          (activation): SiLU()
          (dropout): Dropout(p=0.1, inplace=False)
          (w_2): Linear(in_features=2048, out_features=512, bias=True)
        )
        (conv_module): ConvolutionModule(
          (pointwise_conv1): Conv1d(512, 1024, kernel_size=(1,), stride=(1,))
          (depthwise_conv): Conv1d(512, 512, kernel_size=(31,), stride=(1,), groups=512)
          (norm): LayerNorm((512,), eps=1e-05, elementwise_affine=True)
          (pointwise_conv2): Conv1d(512, 512, kernel_size=(1,), stride=(1,))
          (activation): SiLU()
        )
        (norm_ff): LayerNorm((512,), eps=1e-05, elementwise_affine=True)
        (norm_mha): LayerNorm((512,), eps=1e-05, elementwise_affine=True)
        (norm_ff_macaron): LayerNorm((512,), eps=1e-05, elementwise_affine=True)
        (norm_conv): LayerNorm((512,), eps=1e-05, elementwise_affine=True)
        (norm_final): LayerNorm((512,), eps=1e-05, elementwise_affine=True)
        (dropout): Dropout(p=0.1, inplace=False)
      )
      (10): ConformerEncoderLayer(
        (self_attn): RelPositionMultiHeadedAttention(
          (linear_q): Linear(in_features=512, out_features=512, bias=True)
          (linear_k): Linear(in_features=512, out_features=512, bias=True)
          (linear_v): Linear(in_features=512, out_features=512, bias=True)
          (linear_out): Linear(in_features=512, out_features=512, bias=True)
          (dropout): Dropout(p=0.1, inplace=False)
          (linear_pos): Linear(in_features=512, out_features=512, bias=False)
        )
        (feed_forward): PositionwiseFeedForward(
          (w_1): Linear(in_features=512, out_features=2048, bias=True)
          (activation): SiLU()
          (dropout): Dropout(p=0.1, inplace=False)
          (w_2): Linear(in_features=2048, out_features=512, bias=True)
        )
        (feed_forward_macaron): PositionwiseFeedForward(
          (w_1): Linear(in_features=512, out_features=2048, bias=True)
          (activation): SiLU()
          (dropout): Dropout(p=0.1, inplace=False)
          (w_2): Linear(in_features=2048, out_features=512, bias=True)
        )
        (conv_module): ConvolutionModule(
          (pointwise_conv1): Conv1d(512, 1024, kernel_size=(1,), stride=(1,))
          (depthwise_conv): Conv1d(512, 512, kernel_size=(31,), stride=(1,), groups=512)
          (norm): LayerNorm((512,), eps=1e-05, elementwise_affine=True)
          (pointwise_conv2): Conv1d(512, 512, kernel_size=(1,), stride=(1,))
          (activation): SiLU()
        )
        (norm_ff): LayerNorm((512,), eps=1e-05, elementwise_affine=True)
        (norm_mha): LayerNorm((512,), eps=1e-05, elementwise_affine=True)
        (norm_ff_macaron): LayerNorm((512,), eps=1e-05, elementwise_affine=True)
        (norm_conv): LayerNorm((512,), eps=1e-05, elementwise_affine=True)
        (norm_final): LayerNorm((512,), eps=1e-05, elementwise_affine=True)
        (dropout): Dropout(p=0.1, inplace=False)
      )
      (11): ConformerEncoderLayer(
        (self_attn): RelPositionMultiHeadedAttention(
          (linear_q): Linear(in_features=512, out_features=512, bias=True)
          (linear_k): Linear(in_features=512, out_features=512, bias=True)
          (linear_v): Linear(in_features=512, out_features=512, bias=True)
          (linear_out): Linear(in_features=512, out_features=512, bias=True)
          (dropout): Dropout(p=0.1, inplace=False)
          (linear_pos): Linear(in_features=512, out_features=512, bias=False)
        )
        (feed_forward): PositionwiseFeedForward(
          (w_1): Linear(in_features=512, out_features=2048, bias=True)
          (activation): SiLU()
          (dropout): Dropout(p=0.1, inplace=False)
          (w_2): Linear(in_features=2048, out_features=512, bias=True)
        )
        (feed_forward_macaron): PositionwiseFeedForward(
          (w_1): Linear(in_features=512, out_features=2048, bias=True)
          (activation): SiLU()
          (dropout): Dropout(p=0.1, inplace=False)
          (w_2): Linear(in_features=2048, out_features=512, bias=True)
        )
        (conv_module): ConvolutionModule(
          (pointwise_conv1): Conv1d(512, 1024, kernel_size=(1,), stride=(1,))
          (depthwise_conv): Conv1d(512, 512, kernel_size=(31,), stride=(1,), groups=512)
          (norm): LayerNorm((512,), eps=1e-05, elementwise_affine=True)
          (pointwise_conv2): Conv1d(512, 512, kernel_size=(1,), stride=(1,))
          (activation): SiLU()
        )
        (norm_ff): LayerNorm((512,), eps=1e-05, elementwise_affine=True)
        (norm_mha): LayerNorm((512,), eps=1e-05, elementwise_affine=True)
        (norm_ff_macaron): LayerNorm((512,), eps=1e-05, elementwise_affine=True)
        (norm_conv): LayerNorm((512,), eps=1e-05, elementwise_affine=True)
        (norm_final): LayerNorm((512,), eps=1e-05, elementwise_affine=True)
        (dropout): Dropout(p=0.1, inplace=False)
      )
    )
  )
  (decoder): BiTransformerDecoder(
    (left_decoder): TransformerDecoder(
      (embed): Sequential(
        (0): Embedding(11196, 512)
        (1): PositionalEncoding(
          (dropout): Dropout(p=0.1, inplace=False)
        )
      )
      (after_norm): LayerNorm((512,), eps=1e-05, elementwise_affine=True)
      (output_layer): Linear(in_features=512, out_features=11196, bias=True)
      (decoders): ModuleList(
        (0): DecoderLayer(
          (self_attn): MultiHeadedAttention(
            (linear_q): Linear(in_features=512, out_features=512, bias=True)
            (linear_k): Linear(in_features=512, out_features=512, bias=True)
            (linear_v): Linear(in_features=512, out_features=512, bias=True)
            (linear_out): Linear(in_features=512, out_features=512, bias=True)
            (dropout): Dropout(p=0.1, inplace=False)
          )
          (src_attn): MultiHeadedAttention(
            (linear_q): Linear(in_features=512, out_features=512, bias=True)
            (linear_k): Linear(in_features=512, out_features=512, bias=True)
            (linear_v): Linear(in_features=512, out_features=512, bias=True)
            (linear_out): Linear(in_features=512, out_features=512, bias=True)
            (dropout): Dropout(p=0.1, inplace=False)
          )
          (feed_forward): PositionwiseFeedForward(
            (w_1): Linear(in_features=512, out_features=2048, bias=True)
            (activation): ReLU()
            (dropout): Dropout(p=0.1, inplace=False)
            (w_2): Linear(in_features=2048, out_features=512, bias=True)
          )
          (norm1): LayerNorm((512,), eps=1e-05, elementwise_affine=True)
          (norm2): LayerNorm((512,), eps=1e-05, elementwise_affine=True)
          (norm3): LayerNorm((512,), eps=1e-05, elementwise_affine=True)
          (dropout): Dropout(p=0.1, inplace=False)
        )
        (1): DecoderLayer(
          (self_attn): MultiHeadedAttention(
            (linear_q): Linear(in_features=512, out_features=512, bias=True)
            (linear_k): Linear(in_features=512, out_features=512, bias=True)
            (linear_v): Linear(in_features=512, out_features=512, bias=True)
            (linear_out): Linear(in_features=512, out_features=512, bias=True)
            (dropout): Dropout(p=0.1, inplace=False)
          )
          (src_attn): MultiHeadedAttention(
            (linear_q): Linear(in_features=512, out_features=512, bias=True)
            (linear_k): Linear(in_features=512, out_features=512, bias=True)
            (linear_v): Linear(in_features=512, out_features=512, bias=True)
            (linear_out): Linear(in_features=512, out_features=512, bias=True)
            (dropout): Dropout(p=0.1, inplace=False)
          )
          (feed_forward): PositionwiseFeedForward(
            (w_1): Linear(in_features=512, out_features=2048, bias=True)
            (activation): ReLU()
            (dropout): Dropout(p=0.1, inplace=False)
            (w_2): Linear(in_features=2048, out_features=512, bias=True)
          )
          (norm1): LayerNorm((512,), eps=1e-05, elementwise_affine=True)
          (norm2): LayerNorm((512,), eps=1e-05, elementwise_affine=True)
          (norm3): LayerNorm((512,), eps=1e-05, elementwise_affine=True)
          (dropout): Dropout(p=0.1, inplace=False)
        )
        (2): DecoderLayer(
          (self_attn): MultiHeadedAttention(
            (linear_q): Linear(in_features=512, out_features=512, bias=True)
            (linear_k): Linear(in_features=512, out_features=512, bias=True)
            (linear_v): Linear(in_features=512, out_features=512, bias=True)
            (linear_out): Linear(in_features=512, out_features=512, bias=True)
            (dropout): Dropout(p=0.1, inplace=False)
          )
          (src_attn): MultiHeadedAttention(
            (linear_q): Linear(in_features=512, out_features=512, bias=True)
            (linear_k): Linear(in_features=512, out_features=512, bias=True)
            (linear_v): Linear(in_features=512, out_features=512, bias=True)
            (linear_out): Linear(in_features=512, out_features=512, bias=True)
            (dropout): Dropout(p=0.1, inplace=False)
          )
          (feed_forward): PositionwiseFeedForward(
            (w_1): Linear(in_features=512, out_features=2048, bias=True)
            (activation): ReLU()
            (dropout): Dropout(p=0.1, inplace=False)
            (w_2): Linear(in_features=2048, out_features=512, bias=True)
          )
          (norm1): LayerNorm((512,), eps=1e-05, elementwise_affine=True)
          (norm2): LayerNorm((512,), eps=1e-05, elementwise_affine=True)
          (norm3): LayerNorm((512,), eps=1e-05, elementwise_affine=True)
          (dropout): Dropout(p=0.1, inplace=False)
        )
      )
    )
    (right_decoder): TransformerDecoder(
      (embed): Sequential(
        (0): Embedding(11196, 512)
        (1): PositionalEncoding(
          (dropout): Dropout(p=0.1, inplace=False)
        )
      )
      (after_norm): LayerNorm((512,), eps=1e-05, elementwise_affine=True)
      (output_layer): Linear(in_features=512, out_features=11196, bias=True)
      (decoders): ModuleList(
        (0): DecoderLayer(
          (self_attn): MultiHeadedAttention(
            (linear_q): Linear(in_features=512, out_features=512, bias=True)
            (linear_k): Linear(in_features=512, out_features=512, bias=True)
            (linear_v): Linear(in_features=512, out_features=512, bias=True)
            (linear_out): Linear(in_features=512, out_features=512, bias=True)
            (dropout): Dropout(p=0.1, inplace=False)
          )
          (src_attn): MultiHeadedAttention(
            (linear_q): Linear(in_features=512, out_features=512, bias=True)
            (linear_k): Linear(in_features=512, out_features=512, bias=True)
            (linear_v): Linear(in_features=512, out_features=512, bias=True)
            (linear_out): Linear(in_features=512, out_features=512, bias=True)
            (dropout): Dropout(p=0.1, inplace=False)
          )
          (feed_forward): PositionwiseFeedForward(
            (w_1): Linear(in_features=512, out_features=2048, bias=True)
            (activation): ReLU()
            (dropout): Dropout(p=0.1, inplace=False)
            (w_2): Linear(in_features=2048, out_features=512, bias=True)
          )
          (norm1): LayerNorm((512,), eps=1e-05, elementwise_affine=True)
          (norm2): LayerNorm((512,), eps=1e-05, elementwise_affine=True)
          (norm3): LayerNorm((512,), eps=1e-05, elementwise_affine=True)
          (dropout): Dropout(p=0.1, inplace=False)
        )
        (1): DecoderLayer(
          (self_attn): MultiHeadedAttention(
            (linear_q): Linear(in_features=512, out_features=512, bias=True)
            (linear_k): Linear(in_features=512, out_features=512, bias=True)
            (linear_v): Linear(in_features=512, out_features=512, bias=True)
            (linear_out): Linear(in_features=512, out_features=512, bias=True)
            (dropout): Dropout(p=0.1, inplace=False)
          )
          (src_attn): MultiHeadedAttention(
            (linear_q): Linear(in_features=512, out_features=512, bias=True)
            (linear_k): Linear(in_features=512, out_features=512, bias=True)
            (linear_v): Linear(in_features=512, out_features=512, bias=True)
            (linear_out): Linear(in_features=512, out_features=512, bias=True)
            (dropout): Dropout(p=0.1, inplace=False)
          )
          (feed_forward): PositionwiseFeedForward(
            (w_1): Linear(in_features=512, out_features=2048, bias=True)
            (activation): ReLU()
            (dropout): Dropout(p=0.1, inplace=False)
            (w_2): Linear(in_features=2048, out_features=512, bias=True)
          )
          (norm1): LayerNorm((512,), eps=1e-05, elementwise_affine=True)
          (norm2): LayerNorm((512,), eps=1e-05, elementwise_affine=True)
          (norm3): LayerNorm((512,), eps=1e-05, elementwise_affine=True)
          (dropout): Dropout(p=0.1, inplace=False)
        )
        (2): DecoderLayer(
          (self_attn): MultiHeadedAttention(
            (linear_q): Linear(in_features=512, out_features=512, bias=True)
            (linear_k): Linear(in_features=512, out_features=512, bias=True)
            (linear_v): Linear(in_features=512, out_features=512, bias=True)
            (linear_out): Linear(in_features=512, out_features=512, bias=True)
            (dropout): Dropout(p=0.1, inplace=False)
          )
          (src_attn): MultiHeadedAttention(
            (linear_q): Linear(in_features=512, out_features=512, bias=True)
            (linear_k): Linear(in_features=512, out_features=512, bias=True)
            (linear_v): Linear(in_features=512, out_features=512, bias=True)
            (linear_out): Linear(in_features=512, out_features=512, bias=True)
            (dropout): Dropout(p=0.1, inplace=False)
          )
          (feed_forward): PositionwiseFeedForward(
            (w_1): Linear(in_features=512, out_features=2048, bias=True)
            (activation): ReLU()
            (dropout): Dropout(p=0.1, inplace=False)
            (w_2): Linear(in_features=2048, out_features=512, bias=True)
          )
          (norm1): LayerNorm((512,), eps=1e-05, elementwise_affine=True)
          (norm2): LayerNorm((512,), eps=1e-05, elementwise_affine=True)
          (norm3): LayerNorm((512,), eps=1e-05, elementwise_affine=True)
          (dropout): Dropout(p=0.1, inplace=False)
        )
      )
    )
  )
  (ctc): CTC(
    (ctc_lo): Linear(in_features=512, out_features=11196, bias=True)
    (ctc_loss): CTCLoss()
  )
  (criterion_att): LabelSmoothingLoss(
    (criterion): KLDivLoss()
  )
)/home/yangb/miniconda3/envs/wenet/lib/python3.8/site-packages/torch/cuda/__init__.py:88: UserWarning: CUDA initialization: Unexpected error from cudaGetDeviceCount(). Did you run some cuda functions before calling NumCudaDevices() that might have already set an error? Error 802: system not yet initialized (Triggered internally at ../c10/cuda/CUDAFunctions.cpp:109.)
…
